…
  include {
    phase: TRAIN
  }
  memory_data_param {
    batch_size: 32
    channels: 4
    height: 84
    width: 84
  }
}
layer {
  name: "target_input_layer"
  type: "MemoryData"
  top: "target"
  top: "dummy_target"
  include {
    phase: TRAIN
  }
  memory_data_param {
    batch_size: 32
    channels: 18
    height: 1
    width: 1
  }
}
layer {
  name: "filter_input_layer"
  type: "MemoryData"
  top: "filter"
  top: "dummy_filter"
  include {
    phase: TRAIN
  }
  memory_data_param {
    batch_size: 32
    channels: 18
    height: 1
    width: 1
  }
}
layer {
  name: "silence"
  type: "Silence"
  bottom: "dummy_frames"
  bottom: "dummy_filter"
  bottom: "dummy_target"
  include {
    phase: TRAIN
  }
}
layer {
  name: "reshape_filter"
  type: "Reshape"
  bottom: "filter"
  top: "reshaped_filter"
  include {
    phase: TRAIN
  }
  reshape_param {
    shape {
      dim: 32
      dim: 18
    }
  }
}
layer {
  name: "conv1"
  type: "Convolution"
  bottom: "frames"
  top: "conv1"
  param {
    name: "conv1_w"
    decay_mult: 1
  }
  param {
    name: "conv1_b"
    decay_mult: 0
  }
  include {
    phase: TRAIN
  }
  convolution_param {
    num_output: 32
    kernel_size: 8
    stride: 4
    weight_filler {
      type: "xavier"
    }
    bias_filler {
      type: "constant"
      value: 0
    }
  }
}
layer {
  name: "conv1_relu_layer"
  type: "ReLU"
  bottom: "conv1"
  top: "conv1"
  relu_param {
    negative_slope: 0.01
  }
}
layer {
  name: "conv2"
  type: "Convolution"
  bottom: "conv1"
  top: "conv2"
  param {
    name: "conv2_w"
    decay_mult: 1
  }
  param {
    name: "conv2_b"
    decay_mult: 0
  }
  convolution_param {
    num_output: 64
    kernel_size: 4
    stride: 2
    weight_filler {
      type: "xavier"
    }
    bias_filler {
      type: "constant"
      value: 0
    }
  }
}
layer {
  name: "conv2_relu_layer"
  type: "ReLU"
  bottom: "conv2"
  top: "conv2"
  relu_param {
    negative_slope: 0.01
  }
}
layer {
  name: "conv3"
  type: "Convolution"
  bottom: "conv2"
  top: "conv3"
  param {
    name: "conv3_w"
    decay_mult: 1
  }
  param {
    name: "conv3_b"
    decay_mult: 0
  }
  convolution_param {
    num_output: 64
    kernel_size: 3
    stride: 1
    weight_filler {
      type: "xavier"
    }
    bias_filler {
      type: "constant"
      value: 0
    }
  }
}
layer {
  name: "conv3_relu_layer"
  type: "ReLU"
  bottom: "conv3"
  top: "conv3"
  relu_param {
    negative_slope: 0.01
  }
}
layer {
  name: "ip1_layer"
  type: "InnerProduct"
  bottom: "conv3"
  top: "ip1"
  inner_product_param {
    num_output: 512
    weight_filler {
      type: "xavier"
    }
    bias_filler {
      type: "constant"
      value: 1
    }
  }
}
layer {
  name: "ip1_relu_layer"
  type: "ReLU"
  bottom: "ip1"
  top: "ip1"
  relu_param {
    negative_slope: 0.01
  }
}
layer {
  name: "ip2_layer"
  type: "InnerProduct"
  bottom: "ip1"
  top: "q_values"
  inner_product_param {
    num_output: 18
    weight_filler {
      type: "xavier"
    }
    bias_filler {
      type: "constant"
      value: 1
    }
  }
}
layer {
  name: "eltwise_layer"
  type: "Eltwise"
  bottom: "q_values"
  bottom: "reshaped_filter"
  top: "filtered_q_values"
  include {
    phase: TRAIN
  }
  eltwise_param {
    operation: PROD
  }
}
layer {
  name: "loss"
  type: "EuclideanLoss"
  bottom: "filtered_q_values"
  bottom: "target"
  top: "loss"
  include {
    phase: TRAIN
  }
}
I0211 11:06:59.237040 59544 layer_factory.hpp:76] Creating layer frames_input_layer
I0211 11:06:59.237064 59544 net.cpp:110] Creating Layer frames_input_layer
I0211 11:06:59.237069 59544 net.cpp:433] frames_input_layer -> frames
I0211 11:06:59.237088 59544 net.cpp:433] frames_input_layer -> dummy_frames
I0211 11:06:59.244823 59544 net.cpp:155] Setting up frames_input_layer
I0211 11:06:59.244849 59544 net.cpp:163] Top shape: 32 4 84 84 (903168)
I0211 11:06:59.244853 59544 net.cpp:163] Top shape: 32 (32)
I0211 11:06:59.244858 59544 layer_factory.hpp:76] Creating layer target_input_layer
I0211 11:06:59.244868 59544 net.cpp:110] Creating Layer target_input_layer
I0211 11:06:59.244871 59544 net.cpp:433] target_input_layer -> target
I0211 11:06:59.244879 59544 net.cpp:433] target_input_layer -> dummy_target
I0211 11:06:59.245354 59544 net.cpp:155] Setting up target_input_layer
I0211 11:06:59.245368 59544 net.cpp:163] Top shape: 32 18 1 1 (576)
I0211 11:06:59.245371 59544 net.cpp:163] Top shape: 32 (32)
I0211 11:06:59.245374 59544 layer_factory.hpp:76] Creating layer filter_input_layer
I0211 11:06:59.245381 59544 net.cpp:110] Creating Layer filter_input_layer
I0211 11:06:59.245384 59544 net.cpp:433] filter_input_layer -> filter
I0211 11:06:59.245391 59544 net.cpp:433] filter_input_layer -> dummy_filter
I0211 11:06:59.245455 59544 net.cpp:155] Setting up filter_input_layer
I0211 11:06:59.245463 59544 net.cpp:163] Top shape: 32 18 1 1 (576)
I0211 11:06:59.245466 59544 net.cpp:163] Top shape: 32 (32)
I0211 11:06:59.245470 59544 layer_factory.hpp:76] Creating layer silence
I0211 11:06:59.245478 59544 net.cpp:110] Creating Layer silence
I0211 11:06:59.245486 59544 net.cpp:477] silence <- dummy_frames
I0211 11:06:59.245493 59544 net.cpp:477] silence <- dummy_filter
I0211 11:06:59.245497 59544 net.cpp:477] silence <- dummy_target
I0211 11:06:59.245501 59544 net.cpp:155] Setting up silence
I0211 11:06:59.245502 59544 layer_factory.hpp:76] Creating layer reshape_filter
I0211 11:06:59.245512 59544 net.cpp:110] Creating Layer reshape_filter
I0211 11:06:59.245513 59544 net.cpp:477] reshape_filter <- filter
I0211 11:06:59.245518 59544 net.cpp:433] reshape_filter -> reshaped_filter
I0211 11:06:59.245545 59544 net.cpp:155] Setting up reshape_filter
I0211 11:06:59.245553 59544 net.cpp:163] Top shape: 32 18 (576)
I0211 11:06:59.245554 59544 layer_factory.hpp:76] Creating layer conv1
I0211 11:06:59.245563 59544 net.cpp:110] Creating Layer conv1
I0211 11:06:59.245566 59544 net.cpp:477] conv1 <- frames
I0211 11:06:59.245571 59544 net.cpp:433] conv1 -> conv1
I0211 11:06:59.246611 59544 net.cpp:155] Setting up conv1
I0211 11:06:59.246624 59544 net.cpp:163] Top shape: 32 32 20 20 (409600)
I0211 11:06:59.246634 59544 layer_factory.hpp:76] Creating layer conv1_relu_layer
I0211 11:06:59.246647 59544 net.cpp:110] Creating Layer conv1_relu_layer
I0211 11:06:59.246651 59544 net.cpp:477] conv1_relu_layer <- conv1
I0211 11:06:59.246656 59544 net.cpp:419] conv1_relu_layer -> conv1 (in-place)
I0211 11:06:59.246668 59544 net.cpp:155] Setting up conv1_relu_layer
I0211 11:06:59.246672 59544 net.cpp:163] Top shape: 32 32 20 20 (409600)
I0211 11:06:59.246675 59544 layer_factory.hpp:76] Creating layer conv2
I0211 11:06:59.246680 59544 net.cpp:110] Creating Layer conv2
I0211 11:06:59.246683 59544 net.cpp:477] conv2 <- conv1
I0211 11:06:59.246688 59544 net.cpp:433] conv2 -> conv2
I0211 11:06:59.247444 59544 net.cpp:155] Setting up conv2
I0211 11:06:59.247457 59544 net.cpp:163] Top shape: 32 64 9 9 (165888)
I0211 11:06:59.247465 59544 layer_factory.hpp:76] Creating layer conv2_relu_layer
I0211 11:06:59.247470 59544 net.cpp:110] Creating Layer conv2_relu_layer
I0211 11:06:59.247473 59544 net.cpp:477] conv2_relu_layer <- conv2
I0211 11:06:59.247478 59544 net.cpp:419] conv2_relu_layer -> conv2 (in-place)
I0211 11:06:59.247483 59544 net.cpp:155] Setting up conv2_relu_layer
I0211 11:06:59.247486 59544 net.cpp:163] Top shape: 32 64 9 9 (165888)
I0211 11:06:59.247488 59544 layer_factory.hpp:76] Creating layer conv3
I0211 11:06:59.247494 59544 net.cpp:110] Creating Layer conv3
I0211 11:06:59.247498 59544 net.cpp:477] conv3 <- conv2
I0211 11:06:59.247503 59544 net.cpp:433] conv3 -> conv3
I0211 11:06:59.247889 59544 net.cpp:155] Setting up conv3
I0211 11:06:59.247898 59544 net.cpp:163] Top shape: 32 64 7 7 (100352)
I0211 11:06:59.247905 59544 layer_factory.hpp:76] Creating layer conv3_relu_layer
I0211 11:06:59.247910 59544 net.cpp:110] Creating Layer conv3_relu_layer
I0211 11:06:59.247911 59544 net.cpp:477] conv3_relu_layer <- conv3
I0211 11:06:59.247915 59544 net.cpp:419] conv3_relu_layer -> conv3 (in-place)
I0211 11:06:59.247920 59544 net.cpp:155] Setting up conv3_relu_layer
I0211 11:06:59.247922 59544 net.cpp:163] Top shape: 32 64 7 7 (100352)
I0211 11:06:59.247925 59544 layer_factory.hpp:76] Creating layer ip1_layer
I0211 11:06:59.247930 59544 net.cpp:110] Creating Layer ip1_layer
I0211 11:06:59.247932 59544 net.cpp:477] ip1_layer <- conv3
I0211 11:06:59.247937 59544 net.cpp:433] ip1_layer -> ip1
I0211 11:06:59.259980 59544 net.cpp:155] Setting up ip1_layer
I0211 11:06:59.259996 59544 net.cpp:163] Top shape: 32 512 (16384)
I0211 11:06:59.260007 59544 layer_factory.hpp:76] Creating layer ip1_relu_layer
I0211 11:06:59.260015 59544 net.cpp:110] Creating Layer ip1_relu_layer
I0211 11:06:59.260018 59544 net.cpp:477] ip1_relu_layer <- ip1
I0211 11:06:59.260023 59544 net.cpp:419] ip1_relu_layer -> ip1 (in-place)
I0211 11:06:59.260030 59544 net.cpp:155] Setting up ip1_relu_layer
I0211 11:06:59.260032 59544 net.cpp:163] Top shape: 32 512 (16384)
I0211 11:06:59.260035 59544 layer_factory.hpp:76] Creating layer ip2_layer
I0211 11:06:59.260040 59544 net.cpp:110] Creating Layer ip2_layer
I0211 11:06:59.260042 59544 net.cpp:477] ip2_layer <- ip1
I0211 11:06:59.260047 59544 net.cpp:433] ip2_layer -> q_values
I0211 11:06:59.260185 59544 net.cpp:155] Setting up ip2_layer
I0211 11:06:59.260195 59544 net.cpp:163] Top shape: 32 18 (576)
I0211 11:06:59.260203 59544 layer_factory.hpp:76] Creating layer eltwise_layer
I0211 11:06:59.260215 59544 net.cpp:110] Creating Layer eltwise_layer
I0211 11:06:59.260220 59544 net.cpp:477] eltwise_layer <- q_values
I0211 11:06:59.260223 59544 net.cpp:477] eltwise_layer <- reshaped_filter
I0211 11:06:59.260227 59544 net.cpp:433] eltwise_layer -> filtered_q_values
I0211 11:06:59.260248 59544 net.cpp:155] Setting up eltwise_layer
I0211 11:06:59.260255 59544 net.cpp:163] Top shape: 32 18 (576)
I0211 11:06:59.260258 59544 layer_factory.hpp:76] Creating layer loss
I0211 11:06:59.260264 59544 net.cpp:110] Creating Layer loss
I0211 11:06:59.260267 59544 net.cpp:477] loss <- filtered_q_values
I0211 11:06:59.260269 59544 net.cpp:477] loss <- target
I0211 11:06:59.260274 59544 net.cpp:433] loss -> loss
I0211 11:06:59.260304 59544 net.cpp:155] Setting up loss
I0211 11:06:59.260311 59544 net.cpp:163] Top shape: (1)
…
