…
  include {
    phase: TRAIN
  }
  memory_data_param {
    batch_size: 32
    channels: 4
    height: 84
    width: 84
  }
}
layer {
  name: "target_input_layer"
  type: "MemoryData"
  top: "target"
  top: "dummy_target"
  include {
    phase: TRAIN
  }
  memory_data_param {
    batch_size: 32
    channels: 18
    height: 1
    width: 1
  }
}
layer {
  name: "filter_input_layer"
  type: "MemoryData"
  top: "filter"
  top: "dummy_filter"
  include {
    phase: TRAIN
  }
  memory_data_param {
    batch_size: 32
    channels: 18
    height: 1
    width: 1
  }
}
layer {
  name: "silence"
  type: "Silence"
  bottom: "dummy_frames"
  bottom: "dummy_filter"
  bottom: "dummy_target"
  include {
    phase: TRAIN
  }
}
layer {
  name: "reshape_filter"
  type: "Reshape"
  bottom: "filter"
  top: "reshaped_filter"
  include {
    phase: TRAIN
  }
  reshape_param {
    shape {
      dim: 32
      dim: 18
    }
  }
}
layer {
  name: "conv1"
  type: "Convolution"
  bottom: "frames"
  top: "conv1"
  param {
    name: "conv1_w"
    decay_mult: 1
  }
  param {
    name: "conv1_b"
    decay_mult: 0
  }
  include {
    phase: TRAIN
  }
  convolution_param {
    num_output: 32
    kernel_size: 8
    stride: 4
    weight_filler {
      type: "xavier"
    }
    bias_filler {
      type: "constant"
      value: 0
    }
  }
}
layer {
  name: "conv1_relu_layer"
  type: "ReLU"
  bottom: "conv1"
  top: "conv1"
  relu_param {
    negative_slope: 0.01
  }
}
layer {
  name: "conv2"
  type: "Convolution"
  bottom: "conv1"
  top: "conv2"
  param {
    name: "conv2_w"
    decay_mult: 1
  }
  param {
    name: "conv2_b"
    decay_mult: 0
  }
  convolution_param {
    num_output: 64
    kernel_size: 4
    stride: 2
    weight_filler {
      type: "xavier"
    }
    bias_filler {
      type: "constant"
      value: 0
    }
  }
}
layer {
  name: "conv2_relu_layer"
  type: "ReLU"
  bottom: "conv2"
  top: "conv2"
  relu_param {
    negative_slope: 0.01
  }
}
layer {
  name: "conv3"
  type: "Convolution"
  bottom: "conv2"
  top: "conv3"
  param {
    name: "conv3_w"
    decay_mult: 1
  }
  param {
    name: "conv3_b"
    decay_mult: 0
  }
  convolution_param {
    num_output: 64
    kernel_size: 3
    stride: 1
    weight_filler {
      type: "xavier"
    }
    bias_filler {
      type: "constant"
      value: 0
    }
  }
}
layer {
  name: "conv3_relu_layer"
  type: "ReLU"
  bottom: "conv3"
  top: "conv3"
  relu_param {
    negative_slope: 0.01
  }
}
layer {
  name: "ip1_layer"
  type: "InnerProduct"
  bottom: "conv3"
  top: "ip1"
  inner_product_param {
    num_output: 512
    weight_filler {
      type: "xavier"
    }
    bias_filler {
      type: "constant"
      value: 1
    }
  }
}
layer {
  name: "ip1_relu_layer"
  type: "ReLU"
  bottom: "ip1"
  top: "ip1"
  relu_param {
    negative_slope: 0.01
  }
}
layer {
  name: "ip2_layer"
  type: "InnerProduct"
  bottom: "ip1"
  top: "q_values"
  inner_product_param {
    num_output: 18
    weight_filler {
      type: "xavier"
    }
    bias_filler {
      type: "constant"
      value: 1
    }
  }
}
layer {
  name: "eltwise_layer"
  type: "Eltwise"
  bottom: "q_values"
  bottom: "reshaped_filter"
  top: "filtered_q_values"
  include {
    phase: TRAIN
  }
  eltwise_param {
    operation: PROD
  }
}
layer {
  name: "loss"
  type: "EuclideanLoss"
  bottom: "filtered_q_values"
  bottom: "target"
  top: "loss"
  include {
    phase: TRAIN
  }
}
I0207 23:21:28.897892 15437 layer_factory.hpp:76] Creating layer frames_input_layer
I0207 23:21:28.897933 15437 net.cpp:110] Creating Layer frames_input_layer
I0207 23:21:28.897941 15437 net.cpp:433] frames_input_layer -> frames
I0207 23:21:28.897976 15437 net.cpp:433] frames_input_layer -> dummy_frames
I0207 23:21:28.909113 15437 net.cpp:155] Setting up frames_input_layer
I0207 23:21:28.909142 15437 net.cpp:163] Top shape: 32 4 84 84 (903168)
I0207 23:21:28.909148 15437 net.cpp:163] Top shape: 32 (32)
I0207 23:21:28.909155 15437 layer_factory.hpp:76] Creating layer target_input_layer
I0207 23:21:28.909167 15437 net.cpp:110] Creating Layer target_input_layer
I0207 23:21:28.909173 15437 net.cpp:433] target_input_layer -> target
I0207 23:21:28.909181 15437 net.cpp:433] target_input_layer -> dummy_target
I0207 23:21:28.910006 15437 net.cpp:155] Setting up target_input_layer
I0207 23:21:28.910022 15437 net.cpp:163] Top shape: 32 18 1 1 (576)
I0207 23:21:28.910027 15437 net.cpp:163] Top shape: 32 (32)
I0207 23:21:28.910032 15437 layer_factory.hpp:76] Creating layer filter_input_layer
I0207 23:21:28.910040 15437 net.cpp:110] Creating Layer filter_input_layer
I0207 23:21:28.910046 15437 net.cpp:433] filter_input_layer -> filter
I0207 23:21:28.910056 15437 net.cpp:433] filter_input_layer -> dummy_filter
I0207 23:21:28.910135 15437 net.cpp:155] Setting up filter_input_layer
I0207 23:21:28.910143 15437 net.cpp:163] Top shape: 32 18 1 1 (576)
I0207 23:21:28.910147 15437 net.cpp:163] Top shape: 32 (32)
I0207 23:21:28.910151 15437 layer_factory.hpp:76] Creating layer silence
I0207 23:21:28.910157 15437 net.cpp:110] Creating Layer silence
I0207 23:21:28.910163 15437 net.cpp:477] silence <- dummy_frames
I0207 23:21:28.910176 15437 net.cpp:477] silence <- dummy_filter
I0207 23:21:28.910181 15437 net.cpp:477] silence <- dummy_target
I0207 23:21:28.910185 15437 net.cpp:155] Setting up silence
I0207 23:21:28.910188 15437 layer_factory.hpp:76] Creating layer reshape_filter
I0207 23:21:28.910209 15437 net.cpp:110] Creating Layer reshape_filter
I0207 23:21:28.910215 15437 net.cpp:477] reshape_filter <- filter
I0207 23:21:28.910221 15437 net.cpp:433] reshape_filter -> reshaped_filter
I0207 23:21:28.910254 15437 net.cpp:155] Setting up reshape_filter
I0207 23:21:28.910261 15437 net.cpp:163] Top shape: 32 18 (576)
I0207 23:21:28.910264 15437 layer_factory.hpp:76] Creating layer conv1
I0207 23:21:28.910277 15437 net.cpp:110] Creating Layer conv1
I0207 23:21:28.910284 15437 net.cpp:477] conv1 <- frames
I0207 23:21:28.910291 15437 net.cpp:433] conv1 -> conv1
I0207 23:21:28.911480 15437 net.cpp:155] Setting up conv1
I0207 23:21:28.911496 15437 net.cpp:163] Top shape: 32 32 20 20 (409600)
I0207 23:21:28.911511 15437 layer_factory.hpp:76] Creating layer conv1_relu_layer
I0207 23:21:28.911519 15437 net.cpp:110] Creating Layer conv1_relu_layer
I0207 23:21:28.911521 15437 net.cpp:477] conv1_relu_layer <- conv1
I0207 23:21:28.911526 15437 net.cpp:419] conv1_relu_layer -> conv1 (in-place)
I0207 23:21:28.911543 15437 net.cpp:155] Setting up conv1_relu_layer
I0207 23:21:28.911550 15437 net.cpp:163] Top shape: 32 32 20 20 (409600)
I0207 23:21:28.911555 15437 layer_factory.hpp:76] Creating layer conv2
I0207 23:21:28.911567 15437 net.cpp:110] Creating Layer conv2
I0207 23:21:28.911572 15437 net.cpp:477] conv2 <- conv1
I0207 23:21:28.911579 15437 net.cpp:433] conv2 -> conv2
I0207 23:21:28.912554 15437 net.cpp:155] Setting up conv2
I0207 23:21:28.912569 15437 net.cpp:163] Top shape: 32 64 9 9 (165888)
I0207 23:21:28.912577 15437 layer_factory.hpp:76] Creating layer conv2_relu_layer
I0207 23:21:28.912585 15437 net.cpp:110] Creating Layer conv2_relu_layer
I0207 23:21:28.912588 15437 net.cpp:477] conv2_relu_layer <- conv2
I0207 23:21:28.912596 15437 net.cpp:419] conv2_relu_layer -> conv2 (in-place)
I0207 23:21:28.912603 15437 net.cpp:155] Setting up conv2_relu_layer
I0207 23:21:28.912608 15437 net.cpp:163] Top shape: 32 64 9 9 (165888)
I0207 23:21:28.912611 15437 layer_factory.hpp:76] Creating layer conv3
I0207 23:21:28.912621 15437 net.cpp:110] Creating Layer conv3
I0207 23:21:28.912623 15437 net.cpp:477] conv3 <- conv2
I0207 23:21:28.912628 15437 net.cpp:433] conv3 -> conv3
I0207 23:21:28.913090 15437 net.cpp:155] Setting up conv3
I0207 23:21:28.913100 15437 net.cpp:163] Top shape: 32 64 7 7 (100352)
I0207 23:21:28.913108 15437 layer_factory.hpp:76] Creating layer conv3_relu_layer
I0207 23:21:28.913113 15437 net.cpp:110] Creating Layer conv3_relu_layer
I0207 23:21:28.913117 15437 net.cpp:477] conv3_relu_layer <- conv3
I0207 23:21:28.913122 15437 net.cpp:419] conv3_relu_layer -> conv3 (in-place)
I0207 23:21:28.913127 15437 net.cpp:155] Setting up conv3_relu_layer
I0207 23:21:28.913132 15437 net.cpp:163] Top shape: 32 64 7 7 (100352)
I0207 23:21:28.913136 15437 layer_factory.hpp:76] Creating layer ip1_layer
I0207 23:21:28.913158 15437 net.cpp:110] Creating Layer ip1_layer
I0207 23:21:28.913166 15437 net.cpp:477] ip1_layer <- conv3
I0207 23:21:28.913172 15437 net.cpp:433] ip1_layer -> ip1
I0207 23:21:28.927292 15437 net.cpp:155] Setting up ip1_layer
I0207 23:21:28.927306 15437 net.cpp:163] Top shape: 32 512 (16384)
I0207 23:21:28.927328 15437 layer_factory.hpp:76] Creating layer ip1_relu_layer
I0207 23:21:28.927335 15437 net.cpp:110] Creating Layer ip1_relu_layer
I0207 23:21:28.927337 15437 net.cpp:477] ip1_relu_layer <- ip1
I0207 23:21:28.927343 15437 net.cpp:419] ip1_relu_layer -> ip1 (in-place)
I0207 23:21:28.927350 15437 net.cpp:155] Setting up ip1_relu_layer
I0207 23:21:28.927353 15437 net.cpp:163] Top shape: 32 512 (16384)
I0207 23:21:28.927356 15437 layer_factory.hpp:76] Creating layer ip2_layer
I0207 23:21:28.927361 15437 net.cpp:110] Creating Layer ip2_layer
I0207 23:21:28.927364 15437 net.cpp:477] ip2_layer <- ip1
I0207 23:21:28.927371 15437 net.cpp:433] ip2_layer -> q_values
I0207 23:21:28.927518 15437 net.cpp:155] Setting up ip2_layer
I0207 23:21:28.927527 15437 net.cpp:163] Top shape: 32 18 (576)
I0207 23:21:28.927536 15437 layer_factory.hpp:76] Creating layer eltwise_layer
I0207 23:21:28.927542 15437 net.cpp:110] Creating Layer eltwise_layer
I0207 23:21:28.927546 15437 net.cpp:477] eltwise_layer <- q_values
I0207 23:21:28.927549 15437 net.cpp:477] eltwise_layer <- reshaped_filter
I0207 23:21:28.927553 15437 net.cpp:433] eltwise_layer -> filtered_q_values
I0207 23:21:28.927580 15437 net.cpp:155] Setting up eltwise_layer
I0207 23:21:28.927587 15437 net.cpp:163] Top shape: 32 18 (576)
I0207 23:21:28.927590 15437 layer_factory.hpp:76] Creating layer loss
I0207 23:21:28.927597 15437 net.cpp:110] Creating Layer loss
I0207 23:21:28.927600 15437 net.cpp:477] loss <- filtered_q_values
I0207 23:21:28.927604 15437 net.cpp:477] loss <- target
I0207 23:21:28.927609 15437 net.cpp:433] loss -> loss
I0207 23:21:28.927642 15437 net.cpp:155] Setting up loss
I0207 23:21:28.927649 15437 net.cpp:163] Top shape: (1)
…
